…
2025-08-23 06:25:44: Argument solver: 'rk4'
2025-08-23 06:25:44: Argument teacher_forcing: False
2025-08-23 06:25:44: Argument tensorboard: False
2025-08-23 06:25:44: Argument test_ratio: 0.2
2025-08-23 06:25:44: Argument tod: False
2025-08-23 06:25:44: Argument val_ratio: 0.2
2025-08-23 06:25:44: Argument wave_exp_num: 2
2025-08-23 06:25:44: Argument weight_decay: 0.001
2025-08-23 06:25:44: NeuralGCDE(
  (func_f): FinalTanh_f_custom(
    input_channels: 2, hidden_channels: 128, hidden_hidden_channels: 128, num_hidden_layers: 2
    (linears): SequentialDiffEq(
      (layers): ModuleList(
        (0): ConcatLinear_te(
          (_layer): Linear(in_features=128, out_features=128, bias=True)
          (_time_mlp): Sequential(
            (0): SinusoidalPosEmb()
            (1): Linear(in_features=128, out_features=128, bias=True)
            (2): GELU(approximate=none)
            (3): Linear(in_features=128, out_features=128, bias=True)
          )
        )
        (1): LeakyReLU(negative_slope=0.01)
        (2): ConcatLinear_te(
          (_layer): Linear(in_features=128, out_features=128, bias=True)
          (_time_mlp): Sequential(
            (0): SinusoidalPosEmb()
            (1): Linear(in_features=128, out_features=128, bias=True)
            (2): GELU(approximate=none)
            (3): Linear(in_features=128, out_features=128, bias=True)
          )
        )
        (3): LeakyReLU(negative_slope=0.01)
        (4): ConcatLinear_te(
          (_layer): Linear(in_features=128, out_features=128, bias=True)
          (_time_mlp): Sequential(
            (0): SinusoidalPosEmb()
            (1): Linear(in_features=128, out_features=128, bias=True)
            (2): GELU(approximate=none)
            (3): Linear(in_features=128, out_features=128, bias=True)
          )
        )
        (5): LeakyReLU(negative_slope=0.01)
        (6): ConcatLinear_te(
          (_layer): Linear(in_features=128, out_features=256, bias=True)
          (_time_mlp): Sequential(
            (0): SinusoidalPosEmb()
            (1): Linear(in_features=256, out_features=256, bias=True)
            (2): GELU(approximate=none)
            (3): Linear(in_features=256, out_features=256, bias=True)
          )
        )
      )
    )
  )
  (func_g): VectorField_g(
    input_channels: 2, hidden_channels: 128, hidden_hidden_channels: 128, num_hidden_layers: 2
    (linear_in): Linear(in_features=128, out_features=128, bias=True)
    (linear_out): Linear(in_features=128, out_features=16384, bias=True)
  )
  (end_conv): Conv2d(1, 12, kernel_size=(1, 128), stride=(1, 1))
  (initial_h): Linear(in_features=2, out_features=128, bias=True)
  (initial_z): Linear(in_features=2, out_features=128, bias=True)
  (Ldwt): DWT(
    (forward_wavelet_layers): ModuleList(
      (0): DWT1D_Layer(
        (low_row): ParameterList(  (0): Parameter containing: [torch.cuda.FloatTensor of size 4 (GPU 1)])
      )
      (1): DWT1D_Layer(
        (low_row): ParameterList(  (0): Parameter containing: [torch.cuda.FloatTensor of size 4 (GPU 1)])
      )
    )
    (router): Linear(in_features=4296, out_features=2, bias=True)
  )
  (mlp): Sequential(
    (0): Linear(in_features=6, out_features=48, bias=True)
    (1): ReLU()
    (2): Linear(in_features=48, out_features=48, bias=True)
    (3): ReLU()
    (4): Linear(in_features=48, out_features=2, bias=True)
  )
)
2025-08-23 06:25:44: Total params: 2793112
2025-08-23 06:25:49: Train Epoch 1: 0/490 Loss: 191.579559
2025-08-23 06:26:17: Train Epoch 1: 20/490 Loss: 117.911827
2025-08-23 06:26:46: Train Epoch 1: 40/490 Loss: 103.965958
2025-08-23 06:27:17: Train Epoch 1: 60/490 Loss: 56.160179
2025-08-23 06:27:49: Train Epoch 1: 80/490 Loss: 52.716003
2025-08-23 06:28:19: Train Epoch 1: 100/490 Loss: 42.706554
…
